app/models/best_model.pth (torch, 625314 bytes, 48 tensors)

layer_1.weight f4 [256, 30]
0	0xbe079ca9	-0.13243355
1	0x3daa59c0	0.083179
2	0x3d370806	0.044685386
3	0xbcdbf08a	-0.026848096
4	0xbcf0e5d5	-0.029406467
5	0x3ded50cb	0.11587676
6	0x3db9fd24	0.09081486
7	0x3ceac5b1	0.02865872
8	0xbd50eb03	-0.051005375
9	0xbd71277c	-0.058875546
10	0xbd07c2df	-0.033144828
11	0xbc37087d	-0.011171457
12	0x3da09bf2	0.07842244
13	0x3d911383	0.070838
14	0xbe42b80f	-0.19015525
15	0x3c3150e3	0.010822508
16	0xbc53e2b6	-0.01293247
17	0xbd1344e3	-0.035954367
18	0x3dcb1479	0.09916014
19	0xba5401d6	-0.0008087432
20	0x3c12825e	0.008942215
21	0x3a8222bd	0.0009928566
22	0xbe195132	-0.1497238
23	0x3e4e5bc3	0.20152192
24	0x3dadc639	0.084850736
25	0xbd372092	-0.044708796
26	0xbd400c3f	-0.04688668
27	0x3d7237b5	0.059135158
28	0x3d92f0ca	0.07174833
29	0xbd9a5d57	-0.075373344
30	0x3d5bb5cc	0.053640172
31	0xbe107c94	-0.14110023
32	0x3d87e689	0.06635768
33	0x3d99d371	0.075110324
34	0x3d8b15ae	0.067912444
35	0xbd42f470	-0.047596395
36	0x3e0106b0	0.12600207
37	0x3d151e21	0.036405686
38	0xbe48ebad	-0.19621153
39	0x3daf8409	0.085701056
40	0xbcd1d08b	-0.025612136
41	0x3defad5e	0.11702989
42	0xbe0e4b1f	-0.13895844
43	0xbe2b16da	-0.16707936
44	0xbdf04eeb	-0.117338024
45	0xbe148190	-0.14502549
46	0x3b6411e3	0.00348007
47	0x3da41890	0.080124974
48	0x3d5445f8	0.05182454
49	0x3e1f2383	0.1554089
50	0xbe2a905f	-0.16656636
51	0x3c9c2332	0.019059751
52	0x3ae7ac20	0.0017675199
53	0xbd8f8b44	-0.07008985
54	0x3d9d84c2	0.07691337
55	0xbdaada3e	-0.08342408
56	0xbdffba0c	-0.124866575
57	0x3b8fe76b	0.004391601
58	0x3db2286d	0.08699117
59	0xbdc406f1	-0.095716365
60	0xbc4673a9	-0.0121125365
61	0x3cc8d0e4	0.02451367
62	0x3c346f66	0.011012888
63	0x3d241959	0.040063236
64	0x3d935b88	0.071951926
65	0x3c812484	0.015764482
66	0xbd7ec96a	-0.062203802
67	0xbc9295d8	-0.017893717
68	0x3c333087	0.010936863
69	0xbb8d7710	-0.004317172
70	0xba5cd11f	-0.00084234955
71	0xbd953ecb	-0.072873674
72	0xbd61ec4c	-0.05515699
73	0x3d5f2352	0.054477043
74	0x3dccd502	0.100015655
75	0xbd8fc179	-0.07019324
76	0xbce721dc	-0.028214388
77	0x3dcbb8e2	0.09947373
78	0x3e262778	0.16225994
79	0x3e6ff0a7	0.23431645
80	0xbdbf6868	-0.09346086
81	0x3d60b458	0.05485949
82	0xbe11abe7	-0.14225732
83	0x3cb339cc	0.021878146
84	0xbd446aed	-0.047953535
85	0xbcdb4601	-0.026766779
86	0xbdad3e06	-0.08459096
87	0x3c68ec28	0.01421646
88	0xbd785f7b	-0.060637932
89	0xbda0176e	-0.07816969
90	0xbe02f70b	-0.12789552
91	0x3da7b86e	0.08189474
92	0xbd431895	-0.047630865
93	0xbcf93309	-0.030419843
94	0xbb87aaee	-0.0041402495
95	0x3e5ccfcc	0.21563643
96	0xbe5fd2b6	-0.21857724
97	0xbd7d1965	-0.061791796
98	0x3dc25311	0.094885
99	0xbd7dda42	-0.061975725
100	0xbc701dd8	-0.014655553
101	0xbdd49224	-0.103794366
102	0x3cca3bed	0.024686778
103	0xbe0e3445	-0.13887127
104	0x3b8ec732	0.004357242
105	0xbcf12df8	-0.029440865
106	0x3e9684b9	0.29398134
107	0x3eba36a1	0.36369804
108	0x3dcc3f3e	0.09973
109	0x3d7fa309	0.06241134
110	0x3d8cb205	0.06869892
111	0xbdcf6c08	-0.10128027
112	0x3d37ba05	0.044855136
113	0x3ce812a2	0.028329197
114	0x3c9cd98b	0.019146701
115	0xbd3ba694	-0.04581316
116	0x3d58de4a	0.052946366
117	0xbe203f9d	-0.15649267
118	0xbd15145d	-0.036396373
119	0xbdb526d6	-0.08845298
120	0xbda9001c	-0.08251974
121	0x3deeb311	0.11655248
122	0xbef01d26	-0.46897238
123	0x3e1aee8a	0.15130058
124	0x3bfa6909	0.0076419157
125	0xbdaa15df	-0.08304953
126	0x3d5bdbf8	0.053676575
127	0x3be8aaa8	0.007100422
128	0x3d47e181	0.04879904
129	0x3df46356	0.11933009
130	0x3d62cd5b	0.055371623
131	0xbdf4cdac	-0.11953291
132	0x3d87b0f7	0.0662555
133	0x3cd9e1b2	0.026596878
134	0x3cdb5f6c	0.0267789
135	0x3c39a2f6	0.011330357
136	0xbda549f9	-0.0807075
137	0xbd635a32	-0.05550594
138	0xbcbf4957	-0.0233504
139	0x3aea822a	0.0017891575
140	0x3be3fbca	0.006957506
141	0xbcca427e	-0.02468991
142	0x3d021532	0.031758495
143	0xbd1206c8	-0.035651
144	0xbc381580	-0.011235595
145	0x3dac2668	0.08405763
146	0xbb679124	-0.0035334313
147	0x3d8c19d0	0.06840861
148	0xbd4ed6a5	-0.05049767
149	0xbda351ed	-0.079746105
150	0x3c5efb35	0.013609697
151	0xbddf13e8	-0.10892469
152	0xbd28144c	-0.04103498
153	0x3e257cbe	0.16160867
154	0xbaa13432	-0.0012298881
155	0xbd2f0c68	-0.04273644
156	0xbdf233c0	-0.11826277
157	0x3d64b74b	0.055838864
158	0xbdb61844	-0.08891347
159	0x3d8ddf7a	0.069273904
160	0x3c4c3818	0.012464546
161	0x3d1c15e1	0.038106803
162	0x3ea1006b	0.3144563
163	0xbde20398	-0.11035842
164	0xbd08240b	-0.0332375
165	0x3da1de82	0.07903768
166	0x3e2fb0a8	0.17157233
167	0xbd45b59f	-0.04826891
168	0xbc7c258a	-0.015389809
169	0xbd2cbf7a	-0.042174794
170	0xbddfd2b9	-0.10928864
171	0x3d5d71b7	0.054063525
172	0xbdc702c3	-0.09717324
173	0x3e284d91	0.16435839
174	0x3d1d0c16	0.038341604
175	0x3c428be6	0.011874175
176	0x3d3ff717	0.046866503
177	0x3dc1ab28	0.094564736
178	0xbca7abff	-0.020467756
179	0x3ccaee76	0.02477191
180	0xbde5a210	-0.112125516
181	0x3af10965	0.0018389641
182	0x3db8157a	0.08988471
183	0xbeaf3203	-0.34217843
184	0xbdc199fd	-0.09453199
185	0x3d3fd0a8	0.04682985
186	0xbd962334	-0.07330933
187	0xbcf9dc27	-0.030500485
188	0xbd4ef9e2	-0.050531276
189	0xbc578af0	-0.013155684
190	0x3db926f5	0.090406336
191	0xbcfa769e	-0.03057414
192	0xbbbb2e7f	-0.00571233
193	0xbcfba6c2	-0.030719165
194	0x39b07f1f	0.00033664049
195	0x3d39e58c	0.04538493
196	0xbf26cafc	-0.6515348
197	0xbdd8af70	-0.10580337
198	0xbcd4302c	-0.025901876
199	0xbc12d2bf	-0.008961379
200	0x3dbbc9b4	0.09169331
201	0x3d33414a	0.043763436
202	0xbecf8a4c	-0.405352
203	0x3e87cdb8	0.26524138
204	0xbd8db541	-0.06919337
205	0x3b0a6e29	0.002112279
206	0xbd634aed	-0.055491377
207	0xbc5fa05c	-0.0136490725
208	0x3d1a59b4	0.037683204
209	0x3d57bffc	0.052673325
210	0xbde2235e	-0.11041902
211	0xbe1afeec	-0.15136307
212	0xbe5d19d1	-0.2159188
213	0x3b341b7a	0.0027482198
214	0xbdb20d15	-0.086939014
215	0xbda65f67	-0.08123665
216	0x3cf98e19	0.030463265
217	0x3e7d5c0b	0.24742143
218	0x3df833a9	0.121192284
219	0x3c7c6638	0.01540523
220	0xbd328eb9	-0.043593142
221	0xbd966a6e	-0.073445186
222	0xbd2ab971	-0.041680757
223	0x3e332f96	0.17498621
224	0xbe1c4af6	-0.1526297
225	0xbde8104b	-0.11331233
226	0x3d861f8a	0.06548984
227	0xbd76f6b6	-0.060293876
228	0xbdb7be1c	-0.08971807
229	0xbe096c30	-0.13420177
230	0x3c016521	0.007897646
231	0x3d875b49	0.06609208
232	0x3d96102e	0.07327305
233	0x3dcbe45e	0.09955667
234	0x3be66835	0.0070314654
235	0x3d5bb50e	0.053639464
236	0x3df013df	0.1172254
237	0x3becc2ca	0.007225369
238	0x3e6877ee	0.22702
239	0xbe29b3da	-0.16572514
240	0xbce77b4e	-0.028257038
241	0x3d347e83	0.044065963
242	0xbde5c5f1	-0.11219395
243	0x3dcbe98b	0.09956654
244	0x3d3db281	0.046312813
245	0xbd0ad781	-0.033896927
246	0xbe450e45	-0.19243725
247	0x3d690872	0.05689282
248	0xbdf4f9af	-0.11961686
249	0x3ea050f1	0.31311753
250	0xbe0d9cba	-0.13829318
251	0xbe09f597	-0.13472591
252	0x3ce40793	0.027835643
253	0xbdde4dfc	-0.10854718
254	0x3db6e738	0.0893082
255	0xbda7f6f4	-0.082013994

layer_1.bias f4 [256]
0	0xbb1c2c8f	-0.002383027
1	0x3c3bc1a2	0.01145974
2	0x3ad0237c	0.0015879716
3	0xbb9d6f05	-0.0048044943
4	0xbb5f7074	-0.0034094127
5	0xbb974af1	-0.004617088
6	0xbb1119d7	-0.0022140646
7	0xbba1a545	-0.0049330317
8	0x3c971dcc	0.018446825
9	0xbc06b112	-0.008220928
10	0x3ce54ba8	0.027990177
11	0xbc496773	-0.012292731
12	0xbb322045	-0.0027179879
13	0x3ba99965	0.0051757568
14	0xb9925895	-0.0002791329
15	0x3c223775	0.009900917
16	0x3baefda3	0.0053402944
17	0xbc7657d2	-0.015035586
18	0xba5553a8	-0.0008137771
19	0xbce2a4e9	-0.027666526
20	0xbc61dff6	-0.013786307
21	0xbca9e5a0	-0.020739377
22	0xbbefa2b7	-0.0073130983
23	0x3ab3181d	0.0013663803
24	0xbc3acd20	-0.011401445
25	0xbd3686d9	-0.044562194
26	0x3c9caa20	0.01912409
27	0x3c8e1f69	0.017348962
28	0x3c917ed3	0.01776067
29	0xbc1ea52f	-0.0096829375
30	0xbc8e3eb7	-0.01736389
31	0x3b994f00	0.004678607
32	0x3c023d34	0.007949162
33	0xbce2240d	-0.027605081
34	0x39ce6ccc	0.00039372442
35	0xbbce5c5a	-0.0062976303
36	0x3be82803	0.007084848
37	0xbcc47ff8	-0.023986802
38	0xbc86a7e2	-0.016437475
39	0x3d19d1ca	0.037553586
40	0x3c91ea20	0.017811835
41	0xbc1b2b0b	-0.009470711
42	0x3cc77257	0.024346514
43	0xba437602	-0.0007456244
44	0xbc91ee66	-0.017813873
45	0xba21ae16	-0.00061676034
46	0xbbe8f491	-0.0071092327
47	0xbc9bf4b7	-0.019037588
48	0x3d932daa	0.07186444
49	0x3b062129	0.0020466542
50	0xbbb3abe3	-0.005483137
51	0x3c899296	0.01679353
52	0xbbc4f60d	-0.006010777
53	0xbad82117	-0.0016489354
54	0xbcd6f6c7	-0.02624072
55	0xbc2fea1b	-0.010736967
56	0xbc69048d	-0.014222276
57	0xbbdd2dc3	-0.00674984
58	0xbc072967	-0.008249617
59	0xbc4a3726	-0.01234225
60	0x3c99d115	0.018776456
61	0x3aa4f247	0.0012584411
62	0xbcde9d49	-0.027174609
63	0xbb842baf	-0.004033528
64	0xbb8a5f98	-0.0042228214
65	0x3c5eb8e3	0.013593885
66	0x3bead0fe	0.007166027
67	0xbba0cdce	-0.0049073463
68	0xbb61302e	-0.0034360993
69	0xbc83a132	-0.016068075
70	0x39a641d7	0.00031711042
71	0xbc051f87	-0.0081251925
72	0xbcb30274	-0.021851756
73	0x3c1cdb54	0.009573776
74	0xbc4ec272	-0.012619602
75	0xbc106833	-0.0088139055
76	0x3a6a7164	0.0008943288
77	0xbc4266d1	-0.011865334
78	0x3cccb7ed	0.024990046
79	0x3ca62453	0.020280993
80	0x3cdf8932	0.0272871
81	0x3c1bc448	0.009507246
82	0x3bbbc5dc	0.005730374
83	0xbc99bded	-0.018767321
84	0x3c829361	0.015939416
85	0xbbb4e6a9	-0.005520661
86	0x3b55178f	0.0032515263
87	0xbc5f64aa	-0.01363484
88	0x3d081a2f	0.033228096
89	0x39a2921e	0.00031007914
90	0xbb2836ee	-0.0025667506
91	0x3bbf9891	0.0058470448
92	0x3c2027f4	0.009775151
93	0x3c2b0cd9	0.010440075
94	0xbc9ccc91	-0.019140514
95	0xbd2d26d4	-0.042273358
96	0xbbe3da8d	-0.0069535435
97	0xbc5713dc	-0.013127293
98	0xbb59cb9e	-0.0033232938
99	0xbd1a6c8e	-0.037701182
100	0x3c9abec1	0.018889787
101	0xbc7cdb58	-0.015433155
102	0x3be8cde8	0.007104624
103	0x3c18bf1c	0.009322908
104	0x3bce580d	0.0062971176
105	0x3bf5bbbf	0.0074991877
106	0x3c1ddab2	0.009634661
107	0xbc3b1f1f	-0.011420994
108	0xbb58cc4f	-0.0033080762
109	0xbd13fea0	-0.0361315
110	0xbbf72f16	-0.007543455
111	0x3bb37b7b	0.0054773665
112	0xbcd20554	-0.025637306
113	0x3cbddaab	0.023175558
114	0xbc2de007	-0.010612494
115	0x3c7bab10	0.015360609
116	0xbd9643c2	-0.073371425
117	0x3c3dd4e9	0.011586406
118	0x3b17ccfa	0.0023162947
119	0xbbf59b89	-0.007495348
120	0xb9bd6e8f	-0.00036131262
121	0xb8a10928	-7.678784e-05
122	0xbc70401b	-0.014663721
123	0x3bf3ce27	0.0074403468
124	0xbcc3f018	-0.023918197
125	0xbad0fbfd	-0.0015944239
126	0xbc9d07f3	-0.01916883
127	0xbc630e8c	-0.013858449
128	0xbb49a173	-0.0030766397
129	0x3c3ad631	0.011403606
130	0xbc2866dc	-0.01027843
131	0xbac3fd09	-0.001495273
132	0xbb0796a3	-0.0020689152
133	0xbd913bf5	-0.07091514
134	0xbd043073	-0.032272767
135	0xbb2714f6	-0.0025494671
136	0xbc96c7b5	-0.018405775
137	0x3a2a2577	0.0006490568
138	0x3c11255c	0.008859005
139	0xbc218d56	-0.009860357
140	0x3b84e8f2	0.0040560896
141	0xbc8e918b	-0.017403385
142	0x3ba0ee45	0.0049112164
143	0xbc583ab0	-0.013197586
144	0x3c8c3d82	0.017119173
145	0xbbc48b8f	-0.005998082
146	0xbbfee07a	-0.0077782245
147	0x3c4afa64	0.012388799
148	0xbb5f6edc	-0.0034093177
149	0x3badbfde	0.0053024134
150	0x3ae1bfa5	0.0017223252
151	0xbcddba2c	-0.027066313
152	0x3c43040c	0.01190282
153	0xbd2d34f4	-0.04228683
154	0xbc67fb9f	-0.014159112
155	0xbc10b930	-0.008833215
156	0xbc2a9a71	-0.010412798
157	0x3c6c79b8	0.014433317
158	0xbb1a5ab4	-0.0023552598
159	0x3b71caba	0.0036894516
160	0x3c17409c	0.009231713
161	0x3bacdddd	0.0052754716
162	0x3b5a7b7d	0.0033337765
163	0xbbd8292f	-0.0065967063
164	0xbd26f8cd	-0.04076462
165	0xbc141dc2	-0.009040298
166	0xbabe544b	-0.0014520971
167	0xb9df80b1	-0.00042629757
168	0xbce13d50	-0.027495056
169	0xbc8ca6b1	-0.017169328
170	0x3cb94256	0.02261464
171	0xbc145888	-0.009054311
172	0xbcb0e31b	-0.021592667
173	0xbc7cc83c	-0.015428599
174	0x3cfea05a	0.031082321
175	0xbb434590	-0.00297961
176	0x3c9e2b6b	0.019307813
177	0x3c1e5b85	0.009665375
178	0x3b2ea838	0.002665056
179	0x3c181207	0.009281642
180	0x3b3c686a	0.002874876
181	0xbc907030	-0.01763162
182	0x3bd48a5a	0.0064862194
183	0x3c911b25	0.017713139
184	0xbc7be67b	-0.015374775
185	0xbbe48e3d	-0.006974964
186	0xbb970c1a	-0.004609597
187	0xbbd953ae	-0.00663229
188	0x3c85a726	0.016315054
189	0x3c716e78	0.01473581
190	0x3d386b8c	0.04502444
191	0x3bf78f45	0.007554921
192	0x3c663e31	0.0140529135
193	0xbc0c0259	-0.008545482
194	0x3b47e1cc	0.0030499576
195	0x3c4bef32	0.012447165
196	0x3c98c28a	0.018647451
197	0xbc04cadd	-0.008105007
198	0xbb92d44f	-0.0044808756
199	0xbc18123a	-0.009281689
200	0x3c868039	0.016418563
201	0xbc38fa48	-0.01129014
202	0x3bc40fc6	0.0059833257
203	0x3c0f8381	0.00875938
204	0x3cb6cab8	0.02231346
205	0xbbacde2b	-0.005275508
206	0x3d0dd199	0.034623716
207	0xbb043a29	-0.0020176268
208	0x3b93a6a6	0.00450595
209	0xbba9241f	-0.0051617767
210	0x3be14676	0.0068748547
211	0x3cfdf16d	0.03099891
212	0xbca7d93a	-0.020489324
213	0xbade8250	-0.0016976092
214	0xbc00cf0d	-0.007861865
215	0x3b7eeb4d	0.0038897574
216	0x3c364df1	0.011126981
217	0xbbba787f	-0.005690634
218	0xbbbb5a4d	-0.005717552
219	0xbc118e08	-0.008883961
220	0xbb348819	-0.002754694
221	0x3b52eba3	0.0032183907
222	0xbbe02335	-0.0068401345
223	0x3d16d036	0.03681966
224	0x3c16c268	0.0092016235
225	0xbab7cdf7	-0.0014023174
226	0xbb6cb92e	-0.0036121118
227	0xbc863535	-0.016382793
228	0x3c8c4b8d	0.01712587
229	0x3c68ce89	0.014209398
230	0xbc7a75e5	-0.015286897
231	0x3c84eb30	0.016225427
232	0xbc52234a	-0.012825796
233	0x3b1262a4	0.0022336626
234	0xbbb9fb75	-0.005675728
235	0xbb426468	-0.0029661898
236	0x3cb7a89d	0.022419268
237	0xbba0176f	-0.004885606
238	0x3bde2d88	0.00678033
239	0x3bb1c62a	0.0054252343
240	0x3cb13ff1	0.021636935
241	0x3bdc4be9	0.0067229164
242	0xbcbe6663	-0.023242181
243	0xbbc3b572	-0.0059725577
244	0x3cd420e2	0.025894586
245	0xbb330506	-0.0027316227
246	0xbc0eff3c	-0.008727845
247	0x3c44402a	0.0119781885
248	0x3ce48257	0.027894182
249	0x3cae6590	0.021288663
250	0xbd047e2a	-0.032346882
251	0xbc446a02	-0.011988165
252	0x3b27c402	0.0025599007
253	0x3d54130d	0.05177598
254	0x3bd8f07c	0.006620465
255	0x3bad2cbb	0.0052848733

bn1.weight f4 [256]
0	0x3f4d2cb1	0.8014632
1	0x3f6626f6	0.899032
2	0x3f779453	0.967107
3	0x3f630097	0.88672775
4	0x3f6817bc	0.90661216
5	0x3f36d63a	0.71420634
6	0x3f8bb759	1.0915328
7	0x3f500171	0.812522
8	0x3f54ce31	0.83127123
9	0x3f5e59dd	0.8685587
10	0x3f5c4164	0.8603728
11	0x3f5aff06	0.85545385
12	0x3f74395e	0.95400035
13	0x3f68c15c	0.90920043
14	0x3f607070	0.87671566
15	0x3f650e34	0.894748
16	0x3f5258c0	0.8216667
17	0x3f593831	0.84851366
18	0x3f513639	0.8172336
19	0x3f6a3dc3	0.9150049
20	0x3f73a990	0.95180607
21	0x3f5c0c38	0.85956144
22	0x3f619bd2	0.8812839
23	0x3f7843ec	0.9697864
24	0x3f6cc4fd	0.9248808
25	0x3f86b200	1.0523071
26	0x3f78407e	0.9697341
27	0x3f610081	0.87891394
28	0x3f8ffe1c	1.1249423
29	0x3f641687	0.89096874
30	0x3f58aa82	0.84635174
31	0x3f6d9a91	0.92813975
32	0x3f3cc706	0.73741186
33	0x3f884aa8	1.0647783
34	0x3f5c81b6	0.86135423
35	0x3f54cb26	0.8312248
36	0x3f4fe9dc	0.81216216
37	0x3f910e04	1.1332402
38	0x3f5f7ea4	0.87302613
39	0x3f867e0a	1.0507214
40	0x3f69e7ae	0.9136914
41	0x3f53fd9b	0.82808846
42	0x3f5cb4d8	0.86213446
43	0x3f667da2	0.9003545
44	0x3f4fe114	0.81202817
45	0x3f990b9e	1.195667
46	0x3f5aca6d	0.8546513
47	0x3f6a8aab	0.9161784
48	0x3f8d7346	1.1050804
49	0x3f5fa3fe	0.8735961
50	0x3f868eec	1.0512366
51	0x3f791200	0.9729309
52	0x3f620266	0.8828491
53	0x3f4ed4e1	0.8079358
54	0x3f570200	0.83987427
55	0x3f635bef	0.88812155
56	0x3f6e21d6	0.9302038
57	0x3f5c69fd	0.86099225
58	0x3f48cf3d	0.7844122
59	0x3f55485d	0.8331354
60	0x3f4d5138	0.80202055
61	0x3f47f501	0.7810822
62	0x3f68d2fd	0.9094694
63	0x3f5523d0	0.8325777
64	0x3f6f4a26	0.93472517
65	0x3f53b379	0.8269573
66	0x3f50f7e2	0.8162824
67	0x3f714237	0.9424166
68	0x3f66be1b	0.9013383
69	0x3f50f022	0.81616414
70	0x3f71d0cf	0.9445924
71	0x3f5374f1	0.82600313
72	0x3f663e97	0.89939255
73	0x3f672587	0.9029164
74	0x3f559280	0.83426666
75	0x3f5ea0ba	0.86964
76	0x3f581f14	0.8442242
77	0x3f808884	1.0041661
78	0x3f69629f	0.9116611
79	0x3f593e1b	0.8486039
80	0x3f820a4a	1.015939
81	0x3f4aa1ca	0.7915312
82	0x3f4cc1c4	0.7998316
83	0x3f546501	0.8296662
84	0x3f5611af	0.83620733
85	0x3f6c8e6e	0.9240483
86	0x3f514717	0.817491
87	0x3f63fbbd	0.89056
88	0x3f8a65c5	1.0812308
89	0x3f89c80e	1.0764177
90	0x3f4bfca5	0.7968238
91	0x3f6cb186	0.9245838
92	0x3f5da6ee	0.8658284
93	0x3f4d1364	0.8010771
94	0x3f5a813e	0.8535346
95	0x3f881bc2	1.0633471
96	0x3f3eb1ff	0.7449035
97	0x3f79de89	0.97605187
98	0x3f603533	0.87581176
99	0x3f6c2726	0.92247236
100	0x3f598eb5	0.8498338
101	0x3f807c09	1.0037853
102	0x3f8a2f84	1.0795751
103	0x3f7af421	0.9802876
104	0x3f55f3b5	0.8357499
105	0x3f5db770	0.8660803
106	0x3f58011a	0.8437668
107	0x3f615515	0.8802045
108	0x3f550e69	0.83225113
109	0x3f748a55	0.9552358
110	0x3f829ea5	1.0204664
111	0x3f6ef9d2	0.93349946
112	0x3f4e57b9	0.80602604
113	0x3f4f61b1	0.8100844
114	0x3f656e9a	0.8962189
115	0x3f4af504	0.79280114
116	0x3f842ea2	1.0326731
117	0x3f6d4dcd	0.9269684
118	0x3f6540d3	0.8955204
119	0x3f5c1fdd	0.8598612
120	0x3f43eaa2	0.76529896
121	0x3f5e83ea	0.86920035
122	0x3f635183	0.8879625
123	0x3f57e676	0.8433603
124	0x3f4a4b17	0.7902083
125	0x3f5f4f9a	0.8723084
126	0x3f5d70e2	0.8650037
127	0x3f5355c2	0.8255273
128	0x3f6201db	0.8828408
129	0x3f67e039	0.9057651
130	0x3f60018b	0.87502354
131	0x3f4c6104	0.79835534
132	0x3f762f02	0.9616548
133	0x3fa65618	1.2995024
134	0x3f800fef	1.0004863
135	0x3f56281a	0.8365494
136	0x3f55deb2	0.8354293
137	0x3f8c4000	1.0957031
138	0x3f762a0b	0.961579
139	0x3f5653ff	0.8372192
140	0x3f56dd6b	0.83931607
141	0x3f65ba46	0.89737356
142	0x3f5e2e7c	0.8678968
143	0x3f58eb66	0.8473419
144	0x3f3e1a8e	0.7425927
145	0x3f46cb7c	0.7765424
146	0x3f6a2066	0.91455686
147	0x3f6cf470	0.9256048
148	0x3f6f1f67	0.9340729
149	0x3f62188d	0.8831871
150	0x3f670492	0.9024135
151	0x3f84ded4	1.0380502
152	0x3f54aead	0.83079034
153	0x3f78cbb9	0.97185856
154	0x3f684a9d	0.9073885
155	0x3f560a5d	0.83609563
156	0x3f4531e8	0.77029276
157	0x3f814343	1.0098652
158	0x3f711e67	0.94187015
159	0x3f504964	0.81361985
160	0x3f4ac1d4	0.7920201
161	0x3f5341bc	0.8252218
162	0x3f6d22c7	0.9263119
163	0x3f5c657c	0.8609235
164	0x3f843da5	1.0331312
165	0x3f845698	1.0338926
166	0x3f414b15	0.7550519
167	0x3f5f72b7	0.87284416
168	0x3f75e4ca	0.9605223
169	0x3f561046	0.8361858
170	0x3f83dd19	1.0301849
171	0x3f51ecd1	0.8200198
172	0x3f531024	0.82446504
173	0x3f4704f7	0.7774195
174	0x3f650dfe	0.89474475
175	0x3f47ba47	0.7801861
176	0x3f92c3a7	1.1465958
177	0x3f646c70	0.8922796
178	0x3f62d45b	0.8860528
179	0x3f633734	0.8875611
180	0x3f6896ca	0.90855086
181	0x3f6018e1	0.8753796
182	0x3f468001	0.7753907
183	0x3f732e77	0.94992775
184	0x3f52cbc8	0.82342196
185	0x3f5c1e4b	0.85983723
186	0x3f4dc425	0.8037742
187	0x3f53d2b9	0.8274341
188	0x3f649dba	0.8930317
189	0x3f7c6268	0.98587656
190	0x3f7acd6a	0.97969687
191	0x3f40fd75	0.75386745
192	0x3f5e6c0b	0.8688361
193	0x3f5093da	0.81475604
194	0x3f8eaf59	1.1147262
195	0x3f6c28f1	0.9224997
196	0x3f717e1e	0.94333065
197	0x3f4e1cca	0.8051268
198	0x3f5540ca	0.83301985
199	0x3f5630c1	0.8366814
200	0x3f497a48	0.7870221
201	0x3f4c3053	0.79761237
202	0x3f54c235	0.83108836
203	0x3f6efcf1	0.9335471
204	0x3f4dc036	0.80371416
205	0x3f67c23c	0.90530753
206	0x3f4f9881	0.8109208
207	0x3f585c0b	0.84515446
208	0x3f6befcc	0.92162776
209	0x3f742928	0.953753
210	0x3f582d88	0.84444475
211	0x3f5c3fc8	0.8603482
212	0x3f9fa976	1.247359
213	0x3f801693	1.0006889
214	0x3f5c50c5	0.86060745
215	0x3f5cc286	0.8623432
216	0x3f4b8fc1	0.79516226
217	0x3f4eae9a	0.8073517
218	0x3f69560a	0.9114691
219	0x3f4a3862	0.78992283
220	0x3f641ea3	0.8910925
221	0x3f661c92	0.89887345
222	0x3f6dc3e1	0.9287701
223	0x3f627c73	0.88471144
224	0x3f562453	0.83649176
225	0x3f5953f1	0.8489371
226	0x3f5df452	0.8670093
227	0x3f689e28	0.9086633
228	0x3f5b2361	0.8560086
229	0x3f52abf2	0.8229362
230	0x3f68e793	0.90978354
231	0x3f5faa46	0.8736919
232	0x3f6bf611	0.9217234
233	0x3f8b32d6	1.0874889
234	0x3f83fe60	1.0312004
235	0x3f83a6cc	1.0285277
236	0x3f6c016f	0.9218969
237	0x3f730bd0	0.949399
238	0x3f505766	0.8138336
239	0x3f6a4770	0.91515255
240	0x3f7e7b9c	0.9940736
241	0x3f481e19	0.78170925
242	0x3f61c3ce	0.881894
243	0x3f79514b	0.9738967
244	0x3f8029e8	1.0012789
245	0x3f62ae2c	0.88547015
246	0x3f4a24e5	0.78962547
247	0x3f3ea249	0.7446638
248	0x3f88b5dd	1.06805
249	0x3f884959	1.0647384
250	0x3f650b9c	0.8947084
251	0x3f488173	0.78322524
252	0x3f8588e7	1.0432404
253	0x3f93392e	1.1501825
254	0x3fa33f79	1.2753745
255	0x3f5bffc3	0.85937136

bn1.bias f4 [256]
0	0xbd4d7e0c	-0.050169036
1	0xbd39eb48	-0.045390397
2	0x3e237571	0.15962769
3	0xbd494930	-0.049142063
4	0xbe00b566	-0.12569198
5	0xbe162c8e	-0.14665434
6	0xbe815c7d	-0.25265875
7	0xbd97863e	-0.073986515
8	0xba9c987d	-0.00119473
9	0x3d8b0eb8	0.06789917
10	0x3d5f61bb	0.054536562
11	0xbddeb0d7	-0.10873573
12	0xbbca14a0	-0.0061670095
13	0xbe046b92	-0.1293166
14	0x3d220997	0.039559927
15	0xbd0aa9db	-0.033853393
16	0xbd9e5f18	-0.077329814
17	0xbe2e319d	-0.17011113
18	0xbd8b6a4f	-0.06807386
19	0xbd10a614	-0.035314634
20	0x3b71e21e	0.0036908458
21	0xbdd78ec8	-0.1052528
22	0x3db8dc2e	0.09026371
23	0xbd95af49	-0.073088236
24	0xbc5ff6b6	-0.01366966
25	0xbe4569a2	-0.19278577
26	0xbd851c03	-0.064994834
27	0xbdd6665b	-0.104687415
28	0xbe4683f8	-0.1938628
29	0xbdfef663	-0.12449338
30	0xbdc6291f	-0.09675812
31	0xbcb75d18	-0.022383258
32	0xbe0b235c	-0.13587707
33	0xbd341df7	-0.04397389
34	0x3c727222	0.014797719
35	0x3d098a9e	0.03357946
36	0xbe25670e	-0.16152593
37	0xbe3d7f94	-0.18505698
38	0xbdec6e6a	-0.11544497
39	0xbe37e397	-0.17957912
40	0xbd2f899e	-0.04285585
41	0xbdfd11c4	-0.12356904
42	0xbd6a8b27	-0.057261612
43	0xbdb43590	-0.08799279
44	0xbe43ad88	-0.19109166
45	0xbda2502d	-0.079254486
46	0xbe695cbe	-0.22789285
47	0xbd08a5f9	-0.03336141
48	0xbe051fca	-0.13000408
49	0xbea57b31	-0.3232055
50	0xbe0eef8f	-0.13958572
51	0xbd88fc09	-0.06688697
52	0xbc84db1e	-0.016217764
53	0xbd9261d0	-0.071475625
54	0xbd69a50e	-0.057042174
55	0xbdb5f7c5	-0.08885149
56	0x3b4bcb84	0.0031096647
57	0x3d1d345e	0.03838002
58	0xbc75f622	-0.015012296
59	0xbce6fb34	-0.028195955
60	0xbe0fec59	-0.14055003
61	0xbe4d6ac6	-0.20060262
62	0xbe33d553	-0.17561845
63	0xbd990d15	-0.07473198
64	0xbe319bd6	-0.17344603
65	0xbdc4319f	-0.09579777
66	0xbe055edc	-0.13024467
67	0xbe92228f	-0.2854199
68	0xbd45e686	-0.048315547
69	0xbd8cad21	-0.06868959
70	0xbdda76cc	-0.1066719
71	0xbd488894	-0.048958376
72	0xbde5f6c3	-0.11228707
73	0xbdfd0224	-0.12353924
74	0xbe3b6c46	-0.18303022
75	0xbd96e311	-0.07367528
76	0xbe094ebe	-0.13408944
77	0xbe38e065	-0.1805435
78	0xbe08346c	-0.13301247
79	0xbe02b7ef	-0.12765478
80	0xbd9c1617	-0.07621401
81	0xbdd5e241	-0.10443545
82	0xbd9154ff	-0.0709629
83	0x3c99f4f0	0.018793553
84	0xbdeb9d80	-0.1150465
85	0xbe46db48	-0.19419587
86	0xbdf3e7de	-0.119094595
87	0xbdcb9998	-0.09941405
88	0xbdb48e1d	-0.088161685
89	0xbd2af026	-0.04173293
90	0xbc4e6568	-0.012597419
91	0xbc9de339	-0.019273387
92	0x3bcf92b4	0.006334627
93	0xbdb1e2fc	-0.08685872
94	0xbe41128b	-0.1885473
95	0xbe4ce2e8	-0.20008433
96	0xbdc98cca	-0.098413065
97	0xbc96f043	-0.018425113
98	0xbd53b325	-0.051684517
99	0xbe142cb9	-0.14470185
100	0x3d6b26c5	0.05741002
101	0xbdedd900	-0.11613655
102	0xbe0eb929	-0.1393782
103	0xbde9f4af	-0.11423623
104	0xbde506ac	-0.11182913
105	0xbdf4a04e	-0.11944638
106	0xbe5e469e	-0.21706626
107	0xbda0d2b8	-0.078526914
108	0xbca1ce24	-0.019751616
109	0xbd97ceb2	-0.07412471
110	0xbe3b6915	-0.18301804
111	0xbe74f583	-0.2392178
112	0xbe0f4b66	-0.13993606
113	0xbde1f87a	-0.11033721
114	0x3d26e4de	0.04074561
115	0xbdf3554a	-0.11881502
116	0x3d41a10b	0.047272723
117	0xbda5f214	-0.08102813
118	0x3d8ca272	0.068669215
119	0xbd9538a9	-0.07286198
120	0xbddd0200	-0.10791397
121	0xbe018b38	-0.12650764
122	0xbdf795f9	-0.12089152
123	0xbd8bf5ec	-0.06834015
124	0xbc929a97	-0.01789598
125	0x3ad047a7	0.0015890495
126	0x3b3e96f4	0.0029081674
127	0xbdf755bc	-0.120768994
128	0xbe1c7b1c	-0.15281337
129	0xbe0412bd	-0.12897773
130	0xbde8a986	-0.11360459
131	0x3d681329	0.056658898
132	0xbe23c146	-0.15991697
133	0x3d5d9c6c	0.054104254
134	0x3d6b97a3	0.05751766
135	0xbe1c8783	-0.15286069
136	0x3d442b78	0.047893018
137	0xbe52f09b	-0.20599596
138	0xbe3f7a6a	-0.18699041
139	0xbdb0d9ea	-0.08635314
140	0xbc1e2afc	-0.009653803
141	0xbd33f1a7	-0.04393163
142	0xbdbe5b76	-0.092947885
143	0xbe006cd0	-0.12541509
144	0xbd1960c1	-0.037445787
145	0xbdafeff1	-0.08590687
146	0xbe17aada	-0.14811268
147	0x3d77e25a	0.0605186
148	0x3b484955	0.0030561287
149	0xbdf1932c	-0.11795649
150	0xbdf143f7	-0.117805414
151	0xbe07b2dc	-0.13251823
152	0xbdb4d37c	-0.088294
153	0x3d9a2443	0.075264476
154	0xbde10fc7	-0.109893374
155	0xbe22259d	-0.15834661
156	0xbdc27e36	-0.09496729
157	0xbd2b88a9	-0.041878376
158	0xbdb3e855	-0.08784548
159	0xbe0400ff	-0.12891005
160	0xbda1a5d0	-0.07892954
161	0xbdd101f0	-0.10205448
162	0xbdcccb95	-0.09999768
163	0x3c9abb8b	0.018888256
164	0xbe755b64	-0.23960644
165	0xbc98c607	-0.018649114
166	0xbe063766	-0.1310707
167	0xbe02d20a	-0.12775436
168	0xbe0ed416	-0.13948092
169	0xbca88ce6	-0.020574998
170	0xbc61ba43	-0.013777318
171	0x3d4ce180	0.05001974
172	0xbdf56d82	-0.119837776
173	0xbda0fe6c	-0.07861027
174	0xbdbaa2ca	-0.09113081
175	0xb895f3be	-7.150274e-05
176	0xbdf56b82	-0.11983396
177	0x3c9bb48b	0.019006988
178	0xbdc73b47	-0.09728103
179	0xbdeb3484	-0.11484626
180	0x3d3d13de	0.046161525
181	0xbd7c9672	-0.061666913
182	0x3c11e45f	0.008904546
183	0x3c7366ec	0.014856081
184	0xbe47b8c4	-0.19504076
185	0xbe0c96da	-0.1372942
186	0xbd8472bf	-0.064671986
187	0x3d021196	0.031755053
188	0xbcabf94f	-0.020992903
189	0xbe6a26ac	-0.22866315
190	0x3dbbbcd0	0.091668725
191	0xbe3c3889	-0.18380941
192	0xbcae5e1a	-0.021285105
193	0xbc98bf7f	-0.018646
194	0xbe2504cd	-0.16115113
195	0xbe68137f	-0.22663687
196	0xbcb926e7	-0.022601558
197	0xbdc709f6	-0.09718697
198	0xbe6750df	-0.22589444
199	0xbd6427a4	-0.055701867
200	0xbe038b89	-0.12846197
201	0xbd13529c	-0.035967454
202	0xbcb7f675	-0.022456387
203	0x3bf1a1a9	0.0073740077
204	0xbd5a5cbc	-0.053311095
205	0xbb452fe4	-0.003008836
206	0x3d6aec32	0.05735416
207	0xbcff1e5e	-0.03114241
208	0xbd94817e	-0.07251261
209	0x3dd066f9	0.101758905
210	0xbddf63c7	-0.10907703
211	0xbe547ab2	-0.2074993
212	0xbd833d33	-0.06408157
213	0xbe35c499	-0.17750777
214	0xbe588bdd	-0.21147104
215	0xbd1b4735	-0.037909705
216	0xbe278ab1	-0.163615
217	0xbd8764ba	-0.06611009
218	0xbea3d367	-0.31997225
219	0xbd4871c5	-0.048936624
220	0x3b365d9b	0.002782679
221	0xbd82f117	-0.063936405
222	0xbd1782e6	-0.03699007
223	0xbe184768	-0.1487099
224	0xbd69cd5c	-0.05708061
225	0x3b5996c4	0.0033201436
226	0xbbf5aed8	-0.0074976496
227	0xbd7572d4	-0.05992396
228	0xbdab983e	-0.08378647
229	0xbda8bfa0	-0.082396746
230	0x39375329	0.0001748322
231	0xbd302c12	-0.04301078
232	0xbd2a2dae	-0.04154747
233	0xbe4718b7	-0.19443022
234	0xbd01263c	-0.031530604
235	0xbe768999	-0.24075927
236	0xbd9bec89	-0.07613475
237	0xbce964cb	-0.028490445
238	0xbdc05a3d	-0.093922116
239	0x3bc462c6	0.00599322
240	0xbd1cb2c8	-0.038256437
241	0xbdebfd52	-0.115229264
242	0xbd96df9e	-0.0736687
243	0xbe000f5a	-0.12505856
244	0xbe62e834	-0.22158891
245	0xbe01dbda	-0.12681523
246	0xbe3b68c3	-0.18301682
247	0xbe27e45b	-0.16395704
248	0xbe83bfb6	-0.257322
249	0xbe54f4e5	-0.20796545
250	0xbdb3da6b	-0.08781894
251	0xbd4a6493	-0.04941232
252	0xbbf8eeff	-0.00759685
253	0xbdc1d7c3	-0.094649814
254	0x3e7a92f7	0.24470125
255	0xbd283a3d	-0.041071165

bn1.running_mean f4 [256]
0	0x3c91005b	0.017700365
1	0x3c2ca92c	0.010538381
2	0x3d4e5561	0.050374392
3	0x3d92542f	0.07144963
4	0x3bb9857a	0.0056616636
5	0xbc7c0bed	-0.015383703
6	0x3c9c121c	0.019051604
7	0xbab4ca05	-0.0013793117
8	0x3c391fdb	0.011299099
9	0xbd01fb8a	-0.031734027
10	0x3d685f64	0.056731597
11	0x3d006bcf	0.031352814
12	0xbd2646c5	-0.040594835
13	0xbcb5bdd1	-0.022185238
14	0xbb8972c7	-0.0041945907
15	0x3cba8e28	0.022772864
16	0x3d7cde19	0.061735246
17	0xbcb2010a	-0.021729011
18	0xba8633ce	-0.0010238828
19	0x3d0e3796	0.03472098
20	0x3d17bbe4	0.03704442
21	0xbd12c796	-0.03583487
22	0xbbe28a97	-0.006913494
23	0x3d222427	0.03958526
24	0xbd8b7564	-0.068095
25	0x3caa55fd	0.020792956
26	0x3d3ff0c1	0.04686046
27	0x3d1649ce	0.03669148
28	0x3d4109c7	0.047128465
29	0xbcb15165	-0.021645257
30	0xbd3b527c	-0.04573296
31	0x3d9efc0b	0.07762917
32	0xbb462b38	-0.0030238163
33	0x3c047c42	0.008086266
34	0x3b0543f8	0.0020334702
35	0xbc285955	-0.010275205
36	0x3d647106	0.05577185
37	0x3cb44719	0.022006558
38	0xbd81de32	-0.063412085
39	0x3d9f2c87	0.07772165
40	0x3d02d7f4	0.03194423
41	0x3da4669f	0.08027386
42	0x3dc74600	0.09730148
43	0xbc030d43	-0.007998767
44	0xbd21d8f0	-0.03951353
45	0xbc1ca724	-0.009561334
46	0xbd9523f1	-0.07282246
47	0x3bbf70c4	0.0058423
48	0x3db8ffdb	0.090331756
49	0xbc38bdd2	-0.011275725
50	0xbcadda58	-0.021222278
51	0x3d56bbad	0.052425075
52	0xbc80c5b5	-0.015719274
53	0x3c706485	0.014672403
54	0x3d59935a	0.05311904
55	0xbc94116b	-0.018074712
56	0xbb990a6a	-0.004670431
57	0x3d010be8	0.031505495
58	0x3bdbfe13	0.0067136376
59	0x3d42c668	0.047552496
60	0x3d18e136	0.037324153
61	0xbcd367a6	-0.02580626
62	0xbd94de65	-0.07268981
63	0x3cc6a8a9	0.024250345
64	0xbc582427	-0.013192213
65	0xbc8ff5b6	-0.017573219
66	0x3b9512ae	0.004549346
67	0xbca4ba61	-0.020108404
68	0xb8e47965	-0.00010894499
69	0x3cd7e84a	0.026355881
70	0x3c5063b2	0.012719082
71	0x3bd2e8f9	0.006436464
72	0x3ca7b6c4	0.020472892
73	0x3d092a3d	0.033487547
74	0x3cc8d39d	0.024514968
75	0x3cd8a6fd	0.026446814
76	0xbc5b73c0	-0.013394296
77	0x3d5cba86	0.05388882
78	0xbc70978d	-0.01468457
79	0x3a488ecc	0.0007650673
80	0x3d860830	0.065445304
81	0x3bd3d415	0.006464491
82	0x3cd9ee71	0.026602956
83	0x3c88e504	0.016710766
84	0x3d4a2e55	0.049360592
85	0xbd99eb58	-0.075155914
86	0x3c3e79bc	0.011625703
87	0xbc9b0098	-0.018921182
88	0x3c27e468	0.010247327
89	0x3d513b50	0.051081955
90	0x3b71fc89	0.0036924204
91	0xbb3e7b5f	-0.0029065234
92	0xbb750079	-0.0037384315
93	0x3c756c8a	0.014979491
94	0x3bd86093	0.0066033094
95	0xbd23c163	-0.03997935
96	0xbced534e	-0.028970387
97	0x3bd325d9	0.006443721
98	0xbc9e5f2a	-0.019332487
99	0x3d09fb51	0.03368694
100	0x3da55aa1	0.08073927
101	0x3d58d129	0.052933846
102	0x3d1b9971	0.03798813
103	0x3d5b52e0	0.053545833
104	0xbc3204d5	-0.01086541
105	0x3d07e79b	0.03317986
106	0x3d147a9e	0.03624975
107	0xbc65f9c0	-0.014036596
108	0x3c17d16e	0.0092662405
109	0xbc03c122	-0.008041652
110	0xbc35122d	-0.011051697
111	0xbc7c5933	-0.015402126
112	0xbd5c6a79	-0.053812478
113	0x3d18b759	0.03728423
114	0x3b7bed9f	0.0038441194
115	0x3cd62bae	0.026143875
116	0xbd8208c8	-0.06349331
117	0x3cbb5c4f	0.022871165
118	0xbcd17c64	-0.02557201
119	0xbd20c1df	-0.03924739
120	0x3db0491d	0.08607695
121	0x3ccac337	0.024751289
122	0xbd303eb4	-0.04302855
123	0xbd33c7f2	-0.043891855
124	0x3d131dac	0.03591697
125	0x3d0c058c	0.034184977
126	0xbc381677	-0.011235825
127	0xbcac6a77	-0.02104686
128	0x3cee1855	0.029064337
129	0xbbd9ed24	-0.006650584
130	0x3d93c6a0	0.07215619
131	0xbce6d0fd	-0.028175825
132	0x3bb7c0c0	0.0056076944
133	0xbdf296d7	-0.11845177
134	0xbcff801f	-0.031189023
135	0x3d944494	0.07239643
136	0x3c6f4f9c	0.014606383
137	0x3cc824b6	0.024431568
138	0x3cf29e79	0.029616581
139	0xbcea4dd1	-0.028601559
140	0x3be43932	0.006964826
141	0xbcea026b	-0.028565606
142	0xbaa5ac7d	-0.0012639906
143	0x3b3ba28d	0.0028630823
144	0x3c5ddcd0	0.013541415
145	0xbc3cea69	-0.011530497
146	0xbc3712ff	-0.011173963
147	0xbbc19b54	-0.005908409
148	0x3da17fb1	0.07885683
149	0x3d609f4c	0.054839417
150	0x3d3475c0	0.044057608
151	0xbc841385	-0.016122589
152	0x3d2b5111	0.041825358
153	0xbdb2e51c	-0.087351054
154	0x3d16229a	0.036654092
155	0xbbe06b0c	-0.0068486985
156	0xbcc32f84	-0.023826368
157	0x3d983ca4	0.07433441
158	0x3c17d3c3	0.0092667965
159	0x3cdf2e17	0.027243657
160	0x3cc38a29	0.02386959
161	0x3d3173d3	0.04332335
162	0x3cbb79de	0.02288526
163	0xbb803bc2	-0.0039133737
164	0x3a5e704d	0.0008485362
165	0x3c549c78	0.012976758
166	0xba11d4bb	-0.00055630103
167	0x3d8c0a10	0.06837857
168	0x3ce358c0	0.02775228
169	0x3cf97617	0.030451817
170	0xbcefa409	-0.029253023
171	0x3c90951c	0.017649226
172	0x3cbb05fa	0.022829998
173	0xbd439083	-0.04774524
174	0x3b82e36c	0.003994396
175	0xbd2838b2	-0.041069694
176	0x3c30864b	0.010774205
177	0xbd0d9f5f	-0.034575816
178	0x3c480c98	0.012210034
179	0x3d8bea7d	0.068318345
180	0xbbb74a7b	-0.0055935956
181	0xbcb4dbae	-0.022077408
182	0xbd185cbe	-0.03719782
183	0xbcb9858a	-0.022646684
184	0xbd09b644	-0.033621088
185	0x3ce0124a	0.02735247
186	0x3c72a216	0.014809152
187	0x3c92731c	0.017877154
188	0x3dacdbe8	0.08440381
189	0x3d9265dc	0.071483344
190	0x3d8bbabd	0.06822727
191	0x3c760e66	0.015018081
192	0x3d3b8552	0.04578144
193	0x3c8e164b	0.017344614
194	0x3d9a0060	0.07519603
195	0xbc274f13	-0.010211724
196	0xbc2443d1	-0.010025934
197	0xbd0eeca6	-0.034893654
198	0xbbe4b547	-0.0069796178
199	0x3bddaaff	0.006764769
200	0x3d677d54	0.056516007
201	0xbd7703d4	-0.060306385
202	0xbb9474e0	-0.004530534
203	0xbc173a5a	-0.009230221
204	0x3d12231e	0.03567802
205	0x3cf65f43	0.030074721
206	0xbbb7de94	-0.00561125
207	0xbd365995	-0.044519026
208	0x3cbbc0a2	0.022919003
209	0x3d4a4346	0.049380563
210	0xbd14f606	-0.03636744
211	0x3c8d7443	0.017267352
212	0xbda26b22	-0.0793059
213	0x3c96936c	0.018380843
214	0x3cfb4215	0.030671159
215	0x3d08df1a	0.03341589
216	0xbd3d6d04	-0.046246544
217	0x3bbed236	0.005823399
218	0xbd4fcb30	-0.050730884
219	0xbd0894d3	-0.033345055
220	0x3bd16db6	0.0063912524
221	0x3c747b6c	0.014922004
222	0x3d901f6b	0.070372425
223	0x3ccfeef8	0.025382504
224	0x3cc84f77	0.024451954
225	0x3c9c574f	0.0190846
226	0xbd1e8aa6	-0.038706444
227	0xbd3870f6	-0.045029603
228	0x3bc21b4f	0.0059236656
229	0x3d18ced7	0.037306633
230	0x3d48df30	0.049040973
231	0x3cfcf826	0.030880045
232	0xbd8450ee	-0.064607486
233	0x3d05275a	0.03250823
234	0x3bf7525d	0.0075476603
235	0xbcf871df	-0.030327735
236	0x3de33f7a	0.110960916
237	0xbd4a88ad	-0.04944675
238	0xbca8c893	-0.020603454
239	0x3cf92ef3	0.030417895
240	0x3cbdf70a	0.023189086
241	0xbc629169	-0.013828614
242	0xbc997a0c	-0.018734954
243	0xbdad5461	-0.084633596
244	0xbcc05384	-0.023477323
245	0xbcfbf40f	-0.030756025
246	0x3c000179	0.007812851
247	0x3d09417b	0.033509713
248	0x3d9c833a	0.07642217
249	0x3d751db4	0.05984278
250	0xbb04f415	-0.0020287086
251	0x3baf79dd	0.0053551034
252	0x3da0b2b5	0.07846586
253	0x3c86d02e	0.01645669
254	0xbcafb857	-0.021450205
255	0x3d336870	0.04380077

bn1.running_var f4 [256]
0	0x3e74199c	0.23837894
1	0x3ec09a75	0.3761784
2	0x3e981612	0.29704338
3	0x3fdd6f86	1.7299659
4	0x3ec18c5f	0.37802407
5	0x3f3dea9e	0.7418612
6	0x3ea66f95	0.32507005
7	0x3ea038be	0.3129329
8	0x3f0d6369	0.5522981
9	0x3ede0cc4	0.43369114
10	0x3e35e643	0.17763619
11	0x3f4011ff	0.7502746
12	0x3f2ebdfe	0.68258655
13	0x3f9e18a0	1.2351265
14	0x3dad216d	0.08453641
15	0x3e4f2324	0.20228249
16	0x3e846fe9	0.2586663
17	0x3fa4eef5	1.2885424
18	0x3eb9f8ed	0.36322728
19	0x3edf4ae3	0.43611822
20	0x3ed3ddbf	0.41380116
21	0x3e0a15ba	0.1348485
22	0x3e59d3db	0.21272223
23	0x3f19c3f9	0.60064656
24	0x3f56e0d7	0.8393683
25	0x3eca1cbd	0.3947505
26	0x3f251066	0.6447815
27	0x3eacd3e9	0.33755425
28	0x3e2dcbfa	0.16972342
29	0x3e85e4b2	0.26151043
30	0x3f3110b5	0.6916612
31	0x3e8dd9b3	0.27705154
32	0x3f349746	0.70543325
33	0x3e876ccc	0.26450193
34	0x3f2691d2	0.65066254
35	0x3ebcf877	0.36908314
36	0x3f4176f1	0.75572115
37	0x3e8e224a	0.27760535
38	0x3e925a9d	0.28584757
39	0x3f03d1db	0.5149209
40	0x3f65185c	0.89490294
41	0x3fa62700	1.2980652
42	0x3fa75a59	1.3074447
43	0x3eba74df	0.3641729
44	0x3e81ced5	0.25353113
45	0x3df74f87	0.120757155
46	0x3f063a21	0.5243245
47	0x3e87eeb2	0.26549298
48	0x3e0fb12d	0.14032431
49	0x3ec531b9	0.38514498
50	0x3e358299	0.177256
51	0x3e4eeed0	0.20208287
52	0x3f742835	0.9537385
53	0x3ebb9a5d	0.36641207
54	0x3fa38e96	1.2777889
55	0x3ff6bfa5	1.9277235
56	0x3ec77846	0.3895895
57	0x3eec1c3b	0.46115288
58	0x3eeffb96	0.46871632
59	0x3eec034b	0.46096262
60	0x3e997e3a	0.29979116
61	0x3e583947	0.211156
62	0x3ee1d7c9	0.44109944
63	0x3ea68063	0.32519826
64	0x3f04d885	0.5189288
65	0x3e9cde89	0.3063853
66	0x3eebabc8	0.46029496
67	0x3e952a63	0.291339
68	0x3e26ab98	0.16276395
69	0x3ec61e9c	0.38695228
70	0x3f8db19c	1.1069827
71	0x3e2f2f6c	0.17107934
72	0x3e95db6f	0.29268977
73	0x3f0ee803	0.5582277
74	0x3f1c2764	0.60997605
75	0x3ef24527	0.47318384
76	0x3f1ed24d	0.62039644
77	0x3efc1493	0.49234447
78	0x3f38f439	0.72247654
79	0x3f85a451	1.044077
80	0x3e692650	0.22768521
81	0x3f282c95	0.65693027
82	0x3f082ae3	0.5319044
83	0x3e9cf450	0.30655146
84	0x4044ccea	3.075007
85	0x4012ddc5	2.2947857
86	0x3ec4dae8	0.38448262
87	0x3f94b3c0	1.1617355
88	0x3e2497ec	0.16073579
89	0x3ea4d65c	0.32194793
90	0x3e679241	0.22614385
91	0x3f43f91e	0.76552
92	0x3eb7d6ee	0.35906166
93	0x3e9465d5	0.28983942
94	0x3f9050d7	1.127467
95	0x3dd3f2e8	0.10349065
96	0x3f101294	0.5627835
97	0x3e36009e	0.17773673
98	0x3f54e5ff	0.83163446
99	0x3f768bd8	0.96307135
100	0x3f450df5	0.7697442
101	0x3f1ec734	0.6202271
102	0x3dbd7493	0.092507504
103	0x3e84553f	0.25846288
104	0x3e6b9259	0.23005046
105	0x3eb88d0f	0.3604512
106	0x3f2b38e1	0.66883665
107	0x3f03f44b	0.51544636
108	0x3eecd8d5	0.4625918
109	0x3ebf216c	0.37330186
110	0x4004b326	2.0734344
111	0x4094fcb4	4.6558475
112	0x3ed813a3	0.42202482
113	0x3eddc85f	0.43316934
114	0x3e44ed4f	0.19231151
115	0x3ef75a53	0.483111
116	0x3dd6cea4	0.10488632
117	0x3ec801d9	0.3906391
118	0x3f06d52f	0.5266904
119	0x3fd265ee	1.6437356
120	0x3f98cc2a	1.1937306
121	0x3e5c2917	0.2150005
122	0x3e41c8a5	0.18924196
123	0x3fa002aa	1.2500813
124	0x3fe9419a	1.8223145
125	0x3f957348	1.1675806
126	0x3faeab79	1.3646079
127	0x3ed8698e	0.42268032
128	0x3e6ce08c	0.23132533
129	0x3e8997a8	0.26873517
130	0x3fbe8051	1.4882909
131	0x3e246464	0.16053921
132	0x3ea79ab2	0.3273521
133	0x3e52c774	0.20583898
134	0x3ede3941	0.43403056
135	0x3f2f741d	0.6853655
136	0x3eafc34c	0.34328687
137	0x3f19fc65	0.6015075
138	0x3e8e4027	0.2778332
139	0x3f70f297	0.9412016
140	0x3e0a5ffc	0.13513178
141	0x3f7ffcb3	0.99994963
142	0x3f267f5c	0.65038085
143	0x3e51ba8b	0.20481317
144	0x3f13737e	0.575981
145	0x3fd895fe	1.6920774
146	0x3d64fcfc	0.055905327
147	0x3e83b4b4	0.25723803
148	0x3ef8a349	0.48562077
149	0x3f0c2b81	0.5475388
150	0x3ed1cf6f	0.40978572
151	0x3eb76bf5	0.35824552
152	0x3f02930b	0.5100562
153	0x3f1fa80a	0.6236578
154	0x3e7451e3	0.23859362
155	0x3ece4f14	0.40294707
156	0x3ea06b14	0.31331694
157	0x3eb53eda	0.35399514
158	0x3ec1771f	0.37786195
159	0x3f79afae	0.9753369
160	0x3ea976a9	0.33098343
161	0x3f8710fb	1.0552057
162	0x3e653a2e	0.22385475
163	0x3e692159	0.22766627
164	0x3eb6b786	0.35686892
165	0x3e3d0659	0.18459453
166	0x3e87dd79	0.26536158
167	0x3f28093d	0.65639096
168	0x3e884a43	0.26619157
169	0x3fa23b46	1.2674339
170	0x3f204743	0.62608737
171	0x3fd73af0	1.6814861
172	0x3e84f746	0.25969905
173	0x3efaf221	0.49012855
174	0x3ea7ed1a	0.32798082
175	0x3ed8176e	0.42205375
176	0x3df645bc	0.120250195
177	0x408a26ff	4.3172603
178	0x3f2845f9	0.6573177
179	0x3f4ad600	0.7923279
180	0x3ef7274f	0.48272178
181	0x3f4ffb5d	0.81242925
182	0x3f04d651	0.5188952
183	0x3e04894c	0.12943
184	0x3fe4fd49	1.7889796
185	0x3eb60adf	0.3555517
186	0x3e92d671	0.2867923
187	0x3e5e79c7	0.21726142
188	0x3f33e2fc	0.70268226
189	0x3eeccb0a	0.46248657
190	0x3f4ead42	0.8073312
191	0x3f8b6a47	1.0891808
192	0x3ece3bd1	0.4028001
193	0x3e29b98d	0.16574688
194	0x3fb1b33c	1.3882823
195	0x3f493e30	0.78610516
196	0x3e470a46	0.19437513
197	0x3f0c6239	0.54837376
198	0x3efa6607	0.48905966
199	0x3e3367ef	0.17520116
200	0x3e1d446f	0.15358137
201	0x3e93e9b9	0.28889254
202	0x3e5da7f5	0.21646102
203	0x3f331fc9	0.69970375
204	0x3eb77d8e	0.35837978
205	0x3ebc6c52	0.36801392
206	0x4049e25e	3.1544414
207	0x3e64313b	0.22284405
208	0x3e31cc1f	0.17363022
209	0x3ec5ec81	0.38657
210	0x3ff7ea15	1.9368311
211	0x3f0b1112	0.5432292
212	0x3f1c41d0	0.6103792
213	0x3e8ee4c0	0.27908897
214	0x3f064ada	0.52457964
215	0x3f35bffa	0.7099606
216	0x3f0d13ab	0.55108136
217	0x3ef8c8d7	0.4859073
218	0x3e676d70	0.22600341
219	0x3fb27625	1.3942305
220	0x3e294133	0.16528778
221	0x3ed3b510	0.41349077
222	0x3f4a5ed1	0.7905093
223	0x3dcb100f	0.09915172
224	0x3e527fa7	0.20556508
225	0x3e548f5f	0.20757817
226	0x3ea9ba96	0.33150166
227	0x3e82371e	0.25432676
228	0x3ed054ec	0.4068979
229	0x3ee2b6ff	0.4428024
230	0x3f506aa0	0.81412697
231	0x3f29e7f2	0.66369545
232	0x3f628178	0.88478804
233	0x3ee9037f	0.4551048
234	0x3edfe5d6	0.43730038
235	0x3e26f3a3	0.16303878
236	0x3fa0ccc5	1.2562491
237	0x3e5fce05	0.21855934
238	0x3ec4ef9c	0.38464057
239	0x3e37c269	0.17945255
240	0x3e919c1e	0.2843942
241	0x3f8e38d1	1.1111089
242	0x3ee49377	0.44643757
243	0x3f0d0e1b	0.5509965
244	0x3e882536	0.2659089
245	0x3f946950	1.1594639
246	0x3ed7fd65	0.42185512
247	0x3f53146c	0.82453036
248	0x3e53a471	0.20668198
249	0x3ec80bc2	0.3907147
250	0x3eb66bce	0.35629123
251	0x3f5ff379	0.87480885
252	0x3ee3c0b7	0.44482967
253	0x3d93b279	0.07211775
254	0x3d19883c	0.03748344
255	0x3fa9a065	1.3252074

layer_2.weight f4 [128, 256]
0	0xbd8d2e7f	-0.06893634
1	0xbc0789b5	-0.008272578
2	0x3d8f1026	0.06985502
3	0x3cfd8e26	0.03095157
4	0x3d1ea869	0.038734827
5	0xbcfc8d40	-0.030829072
6	0x3e14e9b9	0.14542283
7	0x3d54e47b	0.05197571
8	0x3d858a3d	0.065205075
9	0xbcd8c7d4	-0.026462473
10	0x3da5aa84	0.08089164
11	0x3dacc9eb	0.0843695
12	0xbe19519f	-0.14972542
13	0x3e183094	0.14862281
14	0xbce3cf52	-0.027808819
15	0x3e210711	0.15725352
16	0x3d9c7188	0.07638842
17	0x3d910084	0.070801765
18	0xbe44e992	-0.19229725
19	0x39a5acb2	0.0003159992
20	0x3c5a23b0	0.013314173
21	0xbcc2fe41	-0.023802878
22	0x3e577225	0.21039636
23	0x3df4b4bf	0.11948537
24	0x3dff8cdd	0.124780394
25	0x3e24b1cc	0.16083449
26	0x3dd48684	0.10377219
27	0xbd85e05b	-0.06536933
28	0x3dfa48c0	0.12220907
29	0x3e022b02	0.12711719
30	0xbcac0fb2	-0.021003578
31	0xbc3669e6	-0.011133647
32	0xbe13fd3e	-0.14452073
33	0x3cfdf1e7	0.030999137
34	0xb9d90a1a	-0.00041396992
35	0xbdca4fb3	-0.09878483
36	0xbdca8dcb	-0.09890326
37	0x3d3381e9	0.043825064
38	0xbe0bc64e	-0.13649866
39	0x3e55f16d	0.20892878
40	0xbe6593c5	-0.22419651
41	0x3d533765	0.0515665
42	0xbd978ee0	-0.07400298
43	0x3b238355	0.0024950106
44	0x3d8f361c	0.069927424
45	0x3e051f91	0.13000323
46	0x3dbb23dc	0.09137699
47	0x3e4f2093	0.2022727
48	0xbd1ff0f1	-0.03904814
49	0x3cc711fd	0.02430057
50	0x3e4bc55f	0.1989951
51	0x3d47f701	0.048819546
52	0x3c7ff5c4	0.01562256
53	0x3e252081	0.1612568
54	0xbd80a638	-0.06281704
55	0x3dfafae2	0.12254883
56	0xbdae09a6	-0.08497934
57	0xbdcbe213	-0.099552296
58	0x3e439fd2	0.19103935
59	0x3b01d44c	0.0019810377
60	0x3dd1061c	0.102062434
61	0x3d14bd7b	0.036313515
62	0xbd949117	-0.07254236
63	0xbe149c64	-0.14512783
64	0x3e481b5c	0.19541687
65	0x3d4fb646	0.05071094
66	0xbc5e7339	-0.013577276
67	0x3d2f3237	0.042772498
68	0x3cd19ad0	0.025586516
69	0x3d7eecbe	0.062237494
70	0xbd900023	-0.07031276
71	0x3d14ce47	0.036329534
72	0x3df71660	0.120648146
73	0x3d05c33d	0.032656897
74	0xbdf47eb0	-0.11938226
75	0xbe6a3e32	-0.22875288
76	0xbd15039e	-0.036380403
77	0x3ddadfb3	0.106871985
78	0xbd5ee3b9	-0.054416392
79	0x3e211f80	0.15734673
80	0xbd1fde83	-0.039030563
81	0x3cbdba42	0.023160104
82	0x3d77c929	0.060494576
83	0x3e536913	0.20645551
84	0xbd9f4c36	-0.07778208
85	0xbd5f80f6	-0.054566346
86	0x3b7ff7c0	0.0039057583
87	0x3da053c2	0.078284755
88	0x3dfcfe93	0.12353244
89	0xbe6f77dc	-0.23385566
90	0xbda61d40	-0.08111048
91	0xbd4424b0	-0.04788655
92	0x3c6bc437	0.014390043
93	0xbe24edf5	-0.16106398
94	0xbd87fa59	-0.06639547
95	0x3e509da7	0.2037264
96	0xbdf859ac	-0.121264786
97	0xbe962958	-0.29328418
98	0xbe7636bc	-0.24044317
99	0xbdcf7fe7	-0.10131817
100	0xbdb2d38f	-0.08731758
101	0xbdc74d82	-0.0973158
102	0xbde3a4fa	-0.11115451
103	0x3c036820	0.008020431
104	0x3d8677da	0.065658286
105	0x3e1c0429	0.15235962
106	0x3e3cde35	0.1844414
107	0x3dc7a738	0.09748691
108	0xbde23c96	-0.11046712
109	0xbe020f6c	-0.12701195
110	0x3d2494fe	0.040181153
111	0x3e069c7b	0.1314563
112	0xbd86c21b	-0.065799914
113	0x3e75e8fb	0.24014656
114	0x3e023a9d	0.12717672
115	0xbc6f6e80	-0.014613748
116	0xbdaee7cd	-0.08540306
117	0x3df8752b	0.12131723
118	0xbd1e5e25	-0.038664002
119	0x3d8200dc	0.0634782
120	0x3d1fd161	0.03901804
121	0x3dac3a84	0.084095985
122	0xbd8e5006	-0.06948857
123	0xbe40a6d7	-0.18813644
124	0xbcf1bb1a	-0.029508162
125	0xbe042c49	-0.12907518
126	0xbe07382f	-0.13205026
127	0xbe4b67d5	-0.19863828
128	0xbe4ee696	-0.20205149
129	0xbe19cc5d	-0.15019365
130	0xbc7ddb2c	-0.015494149
131	0xbdbf1db5	-0.09331838
132	0x3b1074cb	0.002204227
133	0x3dde81bf	0.10864591
134	0xbe200ec2	-0.1563063
135	0xbd8d5cba	-0.06902452
136	0x3e0e768a	0.13912407
137	0x3e0f5e5d	0.1400084
138	0x3d773a9e	0.060358636
139	0x3e8ff25b	0.2811459
140	0x3de0113b	0.109407865
141	0x3db9ddd5	0.09075514
142	0xbe0fa622	-0.14028218
143	0x3df1cd3c	0.118067235
144	0x3e236ef6	0.15960297
145	0x3e8c71b7	0.27430508
146	0xbcceb7e4	-0.02523417
147	0x3d240493	0.040043425
148	0xbe01bf4f	-0.12670635
149	0x3e04cac0	0.12967968
150	0x3d1a5d15	0.037686426
151	0x3de8a731	0.11360014
152	0xbcb39d98	-0.021925732
153	0xbe077026	-0.13226375
154	0xbc26d671	-0.010182963
155	0xbc13af10	-0.009013906
156	0x3e894345	0.26809135
157	0xbe355565	-0.17708357
158	0x3dfb39f0	0.1226691
159	0x3d550a38	0.0520117
160	0x3d4cd9f4	0.050012544
161	0xbe5e0c2b	-0.21684329
162	0x3d5a3b99	0.053279493
163	0x3d806d5e	0.0627086
164	0x3e602c91	0.21892
165	0xbdc43727	-0.09580832
166	0xbcbf8ba9	-0.023382025
167	0xbc580d7e	-0.013186811
168	0xbd55b8ee	-0.052178316
169	0xbd23162f	-0.039816078
170	0xbb894bb5	-0.004189933
171	0x3d8e145b	0.06937476
172	0xbdff3f0a	-0.124631956
173	0x3dd2895f	0.10280108
174	0x3e5f2861	0.21792747
175	0x3dc03564	0.093851835
176	0x3e042ad8	0.12906969
177	0xbd8f959a	-0.07010956
178	0x3e7d63db	0.24745123
179	0x3d2698d8	0.040673107
180	0x3d5f2ad2	0.054484196
181	0x3e1f6278	0.15564907
182	0x3e4af996	0.19821772
183	0x3def15c9	0.11674077
184	0xbd81111f	-0.06302094
185	0xbda67e64	-0.08129576
186	0xbbefa16f	-0.0073129456
187	0x3ded82a7	0.115971856
188	0xbda06322	-0.07831408
189	0x3e97f9c6	0.2968275
190	0x3dc22c86	0.094811484
191	0xbd70fac5	-0.058832902
192	0xbc87bd37	-0.016569717
193	0x3aebb5c1	0.0017983244
194	0x3e075bc2	0.13218597
195	0x3d9048c1	0.07045127
196	0x3df68b3d	0.12038276
197	0x3d98d563	0.07462575
198	0x3e4f901b	0.20269816
199	0xbd89ebaf	-0.06734406
200	0xbe96ee92	-0.2947889
201	0xbe5795e6	-0.21053275
202	0x3d9f573b	0.0778031
203	0x3e7bbf5e	0.2458472
204	0xbe316b50	-0.17326093
205	0x3e22f5bc	0.15914053
206	0xbd4bd57b	-0.049764138
207	0x3e74d7b9	0.23910417
208	0xbdedfd84	-0.1162062
209	0x3d48c076	0.04901167
210	0x3d84a13c	0.064760655
211	0x3da8bc38	0.08239025
212	0x3dc08aad	0.0940145
213	0x3dc633a1	0.09677816
214	0x3d481091	0.048843924
215	0x3d9a4f7c	0.07534692
216	0xbcc80fd8	-0.024421617
217	0x3e29111a	0.1651043
218	0x3d96656f	0.07343566
219	0xbd569fe0	-0.052398562
220	0xbb7f7c72	-0.0038984087
221	0xbe1c4254	-0.15259677
222	0x3e6cfdc7	0.23143683
223	0x3e2b3ac1	0.16721632
224	0x3e897f6b	0.26855025
225	0x3bf10ef7	0.0073565203
226	0x3e57078b	0.20998971
227	0xbca6c0a2	-0.020355526
228	0x3da6a61a	0.0813715
229	0x3d8ada24	0.06779888
230	0x3d2adab2	0.04171247
231	0xbed221cf	-0.4104142
232	0xba6bc0b5	-0.0008993254
233	0xbd2b20b2	-0.041779228
234	0xbd4c69ef	-0.049905714
235	0x3e4df0a6	0.20111331
236	0xbb2afa4a	-0.0026089125
237	0x3d847486	0.064675376
238	0x3d527b43	0.051387083
239	0x3d3f5c61	0.04671896
240	0x3b36d91b	0.00279004
241	0xbdfae1f9	-0.12250132
242	0x3e1f04aa	0.15529123
243	0x3e631255	0.22174962
244	0x3d7b5e63	0.06136931
245	0x3ca7fcb3	0.020506239
246	0xbd84ff86	-0.0649405
247	0x3cbd9e03	0.023146635
248	0x3e22eec6	0.15911397
249	0xbc3f0358	-0.011658512
250	0x3df26963	0.11836507
251	0xbcb6db35	-0.022321323
252	0xbd870034	-0.065918356
253	0x3d38bed0	0.045103848
254	0xbca230a4	-0.019798584
255	0xbd8b1bf1	-0.06792439
